demos/demo/demo_checkpoints_Graph/mol2latent_model.pth (torch, 309223 bytes, 2 tensors)

weight f4 [256, 300]
000000 9e 2c 29 3a c2 2d 70 bd d4 5b dd ba 3a a1 f3 bc
       0.0006453487 -0.058637388 -0.0016888329 -0.029739965
000010 80 ed c1 ba 4b 78 7b 3d 79 61 a3 bc d4 8e 48 bd
       -0.0014795512 0.061394017 -0.01994394 -0.048964337
000020 30 e6 b2 3c 01 07 91 bd 56 02 3f bd 6d 96 ab 3d
       0.021838278 -0.07081414 -0.046633087 0.08378301
000030 20 d4 3f 3c 0b 23 eb ba bc 25 19 bd 08 c1 e9 bd
       0.011708289 -0.0017939521 -0.037389502 -0.11413771
000040 bd 9b 73 3d 85 80 bc 3c b4 35 3e 3c 1a 20 c1 3d
       0.059474695 0.023010502 0.0116094835 0.09429951
000050 15 9c b2 bd 46 58 c6 3c d7 26 61 3d 90 6f a8 3d
       -0.087211765 0.024212014 0.05496868 0.08224404
000060 2e 4e d2 3d b3 27 a4 3c 0b 93 61 bd 96 ea 6f bd
       0.10268818 0.020038461 -0.05507187 -0.058573328
000070 fa df cb bd c7 cd 06 3b 58 3e 0d bb c1 64 f4 bd
       -0.099548295 0.002056943 -0.0021552052 -0.1193328
000080 36 2d 3b 3d 06 7e 4c 3b a5 1a 67 bc 7e d2 c3 bd
       0.045697413 0.0031203046 -0.014105474 -0.095616326
000090 15 1e 5f 3c 44 8a 94 bd 8c 97 2b 3d 57 d1 35 3d
       0.013618012 -0.072529346 0.041892573 0.044389095
0000a0 94 03 1c 3c 0f 01 d5 3d 3d 6c a4 bc c1 9d b0 bd
       0.0095223375 0.104005925 -0.020071143 -0.08623839
0000b0 ed cd cc bc 8d df c8 3c 94 ac db bc 78 5c 13 3d
       -0.025000537 0.02452066 -0.02681569 0.035976857
0000c0 3f 0d 4b bb 15 4e 03 bc 40 77 fe 3c d1 be ab 3d
       -0.0030983237 -0.008014222 0.031062722 0.08386005
0000d0 5e ca 3a bb 2c 60 97 3c d6 30 84 bc 9a b8 a3 3d
       -0.0028501968 0.018478476 -0.016136568 0.07994194
0000e0 5b 6c 6e bc cc 4d 06 3d be d5 db bd 90 5a bf bc
       -0.014552201 0.032789037 -0.107341275 -0.023358613
0000f0 4f 78 61 bd 54 e8 0c be 18 fa d2 3b ba 78 3b 3d
       -0.055046376 -0.13760501 0.006438505 0.04576943
000100 67 fd c2 3c 73 e7 93 bc c4 b6 64 bd 43 d1 e9 3c
       0.023802472 -0.0180547 -0.05583836 0.028542167
000110 85 0f 97 bd f6 75 73 3d 14 1f 1b be 5f 7b 8e bb
       -0.07376007 0.05943867 -0.15148574 -0.004348203
000120 9b 5a 06 3d 0a e5 97 3d 2a 6f ac bd 98 7d 2c bd
       0.03280125 0.074167326 -0.0841964 -0.042111963
000130 09 8d e5 b9 96 a7 c9 bc 3a 4a 30 bd f4 eb 38 bc
       -0.00043783363 -0.024616044 -0.043039538 -0.011286724
000140 08 59 fe 3a e0 aa 66 bd 00 1f 74 bd 76 f7 2f bd
       0.0019405195 -0.056315303 -0.059599876 -0.042960607
000150 a9 d2 d4 bb 9d c1 a3 3c fc 17 77 bd d8 42 12 bd
       -0.006494839 0.019989783 -0.060325608 -0.03570828
000160 f2 68 ee 3d 3f 8e 88 3d 01 74 5e bd 09 42 2b bc
       0.116411105 0.06667756 -0.05430985 -0.010452756
000170 14 52 84 bd e7 41 97 bd cf 38 45 3b b6 a5 e2 bc
       -0.06460968 -0.07385617 0.0030093675 -0.027666908
000180 a6 d3 55 3d 54 95 62 bd e4 2c 2a bc 14 2a 2e 3d
       0.052203797 -0.05531819 -0.010386679 0.042520598
000190 e7 35 7c bc a2 7b 5d 3d 79 0e 24 bc 3b a8 4b 3c
       -0.015393711 0.054072984 -0.010013216 0.012430246
0001a0 56 48 f3 bb 46 df 8a 3d d3 8e 3d 3d 93 bf 42 bc
       -0.0074243946 0.06780867 0.046278786 -0.011886495
0001b0 c3 ce 07 bd 81 f9 12 3e 08 34 3c 3d f2 ea b6 ba
       -0.033156168 0.1435299 0.04594806 -0.0013955517
0001c0 8d 8b ba 3d 44 aa f1 3c 2f 59 3c bd ac f3 21 3d
       0.091086484 0.029500134 -0.04598349 0.039539024
0001d0 7e 58 b2 3d b9 43 64 bb 54 d8 15 3e ad 9e e9 bb
       0.08708285 -0.0034830405 0.14633304 -0.0071295113
0001e0 68 b0 93 bd 48 7b 0e 3e b4 95 1f bd 26 fe b3 bd
       -0.07211381 0.13914216 -0.038961127 -0.08788709
0001f0 c6 cf bc bc ac fa 89 3d 26 63 fd 3d 2d ab 2f bd
       -0.023048293 0.06737265 0.12372427 -0.042887855
000200 55 ba 65 3d b8 b9 90 bd c0 95 b5 bb 57 84 3b bd
       0.056085903 -0.07066673 -0.005541533 -0.045780506
000210 25 46 0e bd 03 8f 46 bd 1a dd 01 3c 51 b0 a0 bc
       -0.034734864 -0.04847623 0.00792625 -0.019615324
000220 f4 f9 f2 3d 2f 93 bd bd 74 00 b9 3d 1a e6 2f bd
       0.11864081 -0.09256589 0.090332896 -0.04294405
000230 81 33 b8 bc d3 86 63 bd d8 48 a2 bd 96 ef 10 3d
       -0.022485496 -0.0555485 -0.0792405 0.035384737
000240 f3 9b fe bd 9f 8a 0f b9 e3 c9 2a 3c f4 68 3f 3a
       -0.12432089 -0.00013689183 0.01042411 0.0007301711
000250 2d e7 c8 bd a3 5f 9c bd fc f4 0a bd 29 45 5b bd
       -0.09809718 -0.07635429 -0.03392504 -0.053532753
000260 86 85 90 bc a4 87 2f bc 59 57 9d bd 31 fd 83 bd
       -0.017641794 -0.010713492 -0.07682676 -0.06444777
000270 36 15 f7 3c af 74 9f bd 07 56 9a 3c db 24 23 3d
       0.030161481 -0.077859275 0.01883985 0.03983007
000280 e3 3e f7 bc f1 db 8d 3d 01 51 03 3c 1f c3 1f bc
       -0.030181354 0.06926716 0.008014918 -0.00975111
000290 d7 5d aa 3d 9f 72 5e 3c 28 a8 78 bb 88 a5 1e 3d
       0.0831868 0.0135771325 -0.0037942026 0.03873208
0002a0 a0 df b8 3c 5a ac 6a 3c 6f 2f 78 3c 8f 05 3d 3c
       0.02256757 0.014323318 0.015148028 0.01153697
0002b0 4a 34 f9 3c d3 08 8c bd 82 c0 3d 3d 2c 57 21 3b
       0.030420441 -0.068376206 0.046326168 0.002461861
0002c0 b8 2b a0 bd 4a 05 c5 bc 75 7d 38 bd c8 00 96 bd
       -0.07820839 -0.024050374 -0.04504152 -0.07324368
0002d0 16 61 c9 3d 06 79 cd 3c fe 0f 1e bd dc a3 8f bd
       0.09832971 0.025082123 -0.03858947 -0.070136756
0002e0 48 51 35 bc c7 4e 54 3d 4c f5 2a 3d eb 25 33 bd
       -0.011066742 0.05183294 0.04173784 -0.043737333
0002f0 ef 36 cf ba 4e 70 aa 3d 52 fe c7 3c 9f b7 52 3d
       -0.0015809218 0.08322202 0.024413262 0.051444646
000300 33 39 a4 bd 5d e1 3e 3d 6c 62 8b 3c 26 90 9a 3d
       -0.080187224 0.046601642 0.017014705 0.075470254
000310 77 18 82 3c bc 94 3d bc 91 03 db bd f2 ca 6f 3d
       0.015880806 -0.011571106 -0.106940396 0.058543153
000320 26 50 36 bd e1 10 f5 bc a9 b9 0f bc 75 24 29 bc
       -0.04451003 -0.029915275 -0.008772292 -0.010323633
000330 f6 7d 87 bc 04 95 6e bb a0 2d dc 3c 34 8e 9e 3b
       -0.016539555 -0.0036404738 0.026877224 0.0048387293
000340 68 d1 9b 3c 1a 5c e6 bc 35 47 c9 bd 04 a0 42 bd
       0.019020751 -0.02812009 -0.09828035 -0.047515884
000350 9e 88 27 3d 9a 76 38 bd cc d1 b0 bc c7 77 18 3e
       0.040901773 -0.045034982 -0.021584414 0.14889441
000360 48 04 47 3d e7 a4 da 3d 4c f1 40 3c c6 fc d9 3d
       0.048588067 0.10675984 0.01177628 0.10643916
000370 65 41 9a 3c b5 c4 da bd 06 a2 8e bd 2d a0 24 bd
       0.01883001 -0.1068205 -0.06964497 -0.040191818
000380 28 73 7d 3d 04 f4 a0 3d ae 8d fd 3d 0c 86 b9 3d
       0.0618774 0.07859042 0.12380539 0.090587705
000390 f6 82 70 3d 5c 2f b1 bd df 9d d0 3c 28 09 ae 3c
       0.058718644 -0.08651611 0.025465904 0.0212446
0003a0 5a a8 ac 3d c7 ad 32 3c 04 14 c7 bd 46 33 62 3d
       0.08430548 0.01090569 -0.097206146 0.05522468
0003b0 e5 1b 6f bd e9 38 b2 3d 5b 16 04 bd 4a 6f e3 bc
       -0.05837621 0.08702261 -0.032247882 -0.027763028
0003c0 4b e0 d2 3c a3 5d 82 bc 1c de b3 3d a9 07 51 3d
       0.025741717 -0.01591379 0.087825984 0.051032696
0003d0 bc 29 81 bc 82 76 5d 3d e4 b9 5e 3b 9f c5 5e 3c
       -0.01576697 0.054068096 0.0033985311 0.013596921
0003e0 cb b3 3b bd 7c 65 b9 bd 01 92 7a bd dd db 8d 3d
       -0.04582576 -0.0905256 -0.061174396 0.06926701
0003f0 46 9a 2b bc d1 e7 98 bb 2f 8c b3 38 ac 61 55 bd
       -0.010473793 -0.0046663065 8.561496e-05 -0.0520951

bias f4 [256]
000000 43 aa 91 be a3 e2 87 3e 48 8a 97 be ef 68 8d 3d
       -0.28450212 0.26540098 -0.29597688 0.0690478
000010 cd 4e 80 3d ac 3d 87 be f1 1e 07 3e 08 e4 42 be
       0.0626503 -0.2641424 0.13195397 -0.190323
000020 63 2a e6 bd 1e 37 05 be e4 4e a3 3c 53 dc 8e 3e
       -0.112385534 -0.13009307 0.019935079 0.2790247
000030 06 e3 20 be 34 23 3f be 03 4a 1d 3d fe 87 30 3e
       -0.15711603 -0.18665773 0.03840066 0.17239377
000040 f3 95 0d 3e db 53 65 bd 18 3e 2f 3e 75 27 72 3e
       0.13826732 -0.055988174 0.1711353 0.23647864
000050 dc d6 b0 3e fc 56 45 3e 55 72 df 3e 3b 6e 82 be
       0.34538925 0.19271463 0.43641916 -0.25474724
000060 b5 cd 46 3d 86 08 3b be 87 21 82 3e 2f f6 64 be
       0.04853602 -0.1826497 0.25416204 -0.22359537
000070 07 d6 d1 bd e8 e4 d8 be e1 b8 b0 3e f7 8d 98 3d
       -0.102459006 -0.42362142 0.3451605 0.07448953
000080 4b f5 bf 3e 63 9b 4a 3e 66 3a 8f be 60 f3 c4 be
       0.3749183 0.19785838 -0.27974242 -0.3846693
000090 38 ba 1c 3e 43 a2 27 be 60 aa a7 be ff 82 07 3e
       0.15305412 -0.16370492 -0.32747173 0.13233565
0000a0 ff 87 cf be 2c bb e5 3d 43 e5 a7 be 4f 09 03 be
       -0.40533444 0.11217341 -0.327921 -0.1279652
0000b0 fa 7c f1 bd b5 c8 0a 3e c5 0f 88 3e 24 01 a8 3e
       -0.117914155 0.13553126 0.2657453 0.3281337
0000c0 56 3d 56 be fb 5a 44 3e 39 41 02 be 92 31 d0 3d
       -0.20921835 0.19175331 -0.12720193 0.10165705
0000d0 fd 77 ab be 45 51 bf bc 18 97 97 be d3 b7 8d be
       -0.3348998 -0.023354182 -0.29607463 -0.2767931
0000e0 7d cc d7 3d 3d 79 84 be 03 a0 67 3e ab a3 3a bd
       0.1053705 -0.25873747 0.22619633 -0.045566242
0000f0 cf 21 9e 3e b6 04 53 bb 29 3c 1b 3e e5 08 1f be
       0.3088517 -0.0032198853 0.15159668 -0.15530737
000100 2c 50 7e 3e 31 b7 c2 bd 53 db 5e ba 8a a7 a0 3e
       0.2483527 -0.09507597 -0.000850131 0.31377822
000110 e1 2a d2 3d 65 3f 99 3b b8 6e 66 3d 6f 62 3c 3d
       0.10262085 0.0046767467 0.056257933 0.04599231
000120 75 f1 db be 10 40 1a 3e ac 05 57 bc f3 92 8f be
       -0.42957655 0.150635 -0.013123911 -0.280418
000130 10 94 bf bc 92 95 a1 3e 4a d8 d1 3e a4 81 6d 3e
       -0.023386031 0.31559426 0.40985328 0.23193985
000140 6d ab 84 bd 5e f2 ce be 18 36 b3 bd 09 d1 9e 3e
       -0.064780094 -0.40419286 -0.08750552 0.31018856
000150 92 ae 19 be 61 84 66 be 29 b8 86 be 91 e2 0b 3e
       -0.15008 -0.22511436 -0.26312378 0.13660647
000160 08 fe bf 3d b6 4d 54 3e f6 68 99 be d7 af ae 3e
       0.093746245 0.2073277 -0.2996289 0.3411853
000170 ac 4a 0b be 5a db b4 be fe d8 90 3e 87 66 85 be
       -0.13602704 -0.35323602 0.28290552 -0.26054785
000180 64 14 17 be 5b 1b 32 be 86 cd 5e be 63 88 8a 3e
       -0.14753872 -0.17393248 -0.21758088 0.2705718
000190 79 50 60 3d 15 01 12 3d f8 53 85 be 87 87 82 be
       0.054764245 0.035645563 -0.26040626 -0.25494024
0001a0 78 10 90 bc 68 35 7b be 32 1a 6a 3c 0d 45 8e bb
       -0.017585978 -0.24532092 0.014288472 -0.0043417276
0001b0 21 79 dc be 1c f5 ec 3d 33 9c d5 be de c4 c2 be
       -0.43061164 0.115701884 -0.41720733 -0.38040823
0001c0 a4 40 ea be 94 b4 54 3e 06 72 51 3e d6 b9 82 bd
       -0.45752442 0.2077201 0.20453653 -0.06383102
0001d0 d3 cd 37 be d9 93 df bb 60 c6 46 be e3 6c 6a be
       -0.1794961 -0.0068230447 -0.19411612 -0.228931
0001e0 24 1e ab be 90 c9 62 be 16 b4 ba 3e 67 11 c0 be
       -0.33421433 -0.22147202 0.3646552 -0.37513277
0001f0 5e a1 21 3d 0c 2a 7d 3e 8d 96 05 be a6 28 90 3e
       0.039460532 0.24723071 -0.13045712 0.28156012
000200 46 7d 1c 3e 42 52 60 be f6 62 84 bd d5 55 7a be
       0.15282163 -0.21906379 -0.06464188 -0.24446805
000210 de 73 38 bd 3e c9 88 be 57 ba 12 be fb a7 39 be
       -0.045032375 -0.26716036 -0.14328896 -0.18130486
000220 19 ce 12 bd f2 8a 93 bd 75 fc a2 3e 9b db 28 be
       -0.03584108 -0.07204236 0.31833234 -0.16490023
000230 bf 17 bd 3e fb 68 c3 be b8 a9 57 bd 39 72 76 3d
       0.3693218 -0.3816603 -0.05265209 0.060167525
000240 1a 61 a5 3e 44 bf 87 3e 37 de 91 3e f9 5b bb be
       0.32300645 0.26513112 0.2848985 -0.36593607
000250 6b 9b 04 3e 48 69 64 be 22 f9 cc bc ad 5f a2 be
       0.12949912 -0.22305787 -0.02502114 -0.3171362
000260 23 15 46 be 96 ca e6 3d 29 4e 02 bf 82 45 c9 3e
       -0.19344 0.11269109 -0.5090051 0.39310843
000270 42 af e9 be a6 67 9b 3e 01 88 2b 3d 94 a1 87 be
       -0.45641524 0.30352515 0.04187775 -0.26490462
000280 9d 96 df be 74 ec 58 be 54 38 3f be 3b 56 59 3d
       -0.43669596 -0.2118395 -0.18673831 0.05306075
000290 d3 63 8f bd 9b bc 8f 3e 6b 28 88 3c c4 52 52 be
       -0.07001462 0.28073582 0.016620835 -0.20539385
0002a0 11 4c 5a 3e 6a fe 7c 3e 74 df 8c be 25 28 89 3d
       0.2131808 0.24706426 -0.2751423 0.0669711
0002b0 3f fc 7d be bd 9a 51 be 7b 69 b3 bd da dc 06 3e
       -0.24803255 -0.20469184 -0.08760353 0.13170186
0002c0 4f c3 13 bd a0 81 c4 3d 83 92 14 3e 2f 39 78 be
       -0.036074933 0.095950365 0.14509015 -0.24240564
0002d0 83 dc 30 be 14 56 9f 3e b9 88 bf 3e e2 3d 02 bd
       -0.17271619 0.3112036 0.37409 -0.031797297
0002e0 93 43 88 3d 03 8f b8 3e 12 9c c4 bd 15 56 84 be
       0.06653514 0.3604661 -0.096000805 -0.25846925
0002f0 19 bb b0 be a2 ca 95 be 1c 17 b9 3e 58 c0 24 3e
       -0.34517744 -0.2925616 0.36150444 0.16088998
000300 ec 02 23 3e 91 ea a5 3d dd b8 08 3e 25 49 a5 bd
       0.15919083 0.081013806 0.1335177 -0.08070592
000310 e5 4f 9b be 2a 2a 85 be 26 c6 22 be e9 a0 78 be
       -0.30334392 -0.2600873 -0.158959 -0.24280132
000320 fb bf 6d ba e9 7f 92 3e 51 b3 65 3e 0c 6b 99 3e
       -0.000906944 0.28613213 0.22431685 0.29964483
000330 97 8f 92 be 01 30 3c be 67 d2 25 be aa 8f 84 3e
       -0.28625175 -0.18377687 -0.16193543 0.25890857
000340 d9 62 84 bd d9 0f 81 3e 78 69 04 3e 1c b2 cd 3d
       -0.06464166 0.25207403 0.12930858 0.10043737
000350 ac 75 55 be 59 20 39 3e 2b 27 a7 3e 0b 83 c6 be
       -0.2084567 0.18078746 0.3264707 -0.38771853
000360 df 3d ec be a9 ad b6 be 75 fc 88 be 81 29 a9 3e
       -0.46140954 -0.35679367 -0.2675511 0.33039477
000370 e9 c4 c2 3c 9f 8b 98 3e 32 eb 22 be fd b6 85 be
       0.023775535 0.29794022 -0.15910032 -0.2611617
000380 c2 20 bc bc ef 94 5f 3e e4 bd 0d 3e 1b 5e 8a bc
       -0.022964839 0.21834157 0.13841969 -0.016890576
000390 af 98 8b be 99 b3 a9 be b2 5a bc bd ed d6 10 3e
       -0.27264926 -0.33144835 -0.09196986 0.14144488
0003a0 8d 14 74 3e b7 6c 26 be 59 b9 2d be 19 95 39 3e
       0.23835965 -0.16252409 -0.16965236 0.18123282
0003b0 89 8e 97 3e f7 1e 19 3d 61 b6 58 be d6 ea c9 be
       0.29600933 0.037383046 -0.21163322 -0.39436978
0003c0 42 da 6b 3e 18 f3 c6 be 79 35 b9 3e d0 62 ce bc
       0.23032477 -0.3885734 0.3617361 -0.025193602
0003d0 b9 d4 55 be 4e 25 1c be 95 c5 9b 38 76 ef c0 3d
       -0.20881929 -0.15248606 7.4277785e-05 0.094206735
0003e0 e7 62 f2 3d b8 89 ad 3e 02 a0 b3 3d ca 4e 81 3e
       0.118352704 0.33894134 0.087707534 0.25255424
0003f0 8f b1 76 bd 29 9e 9d be 2c e7 f2 3d 7d c1 24 b9
       -0.060227927 -0.3078473 0.11860499 -0.00015712339
